…
      "Instructions for updating:\n",
      "Colocations handled automatically by placer.\n",
      "[root    |INFO|build_network.py:648] ------------------------------------------------------------------------------------------\n"
     ]
    },
    {
     "name": "stdout",
     "output_type": "stream",
     "text": [
      "Model: \"model_1\"\n",
      "_________________________________________________________________\n",
      "Layer (type)                 Output Shape              Param #   \n",
      "=================================================================\n",
      "input (InputLayer)           (None, 48)                0         \n",
      "_________________________________________________________________\n",
      "l1_dense (Dense_with_tree)   (None, 40)                1960      \n",
      "_________________________________________________________________\n",
      "l1_activation (Activation)   (None, 40)                0         \n",
      "_________________________________________________________________\n",
      "l2_dense (Dense_with_tree)   (None, 23)                943       \n",
      "_________________________________________________________________\n",
      "l2_activation (Activation)   (None, 23)                0         \n",
      "_________________________________________________________________\n",
      "l3_dense (Dense_with_tree)   (None, 17)                408       \n",
      "_________________________________________________________________\n",
      "l3_activation (Activation)   (None, 17)                0         \n",
      "_________________________________________________________________\n",
      "l4_dense (Dense_with_tree)   (None, 9)                 162       \n",
      "_________________________________________________________________\n",
      "l4_activation (Activation)   (None, 9)                 0         \n",
      "_________________________________________________________________\n",
      "last_dense_h (Dense)         (None, 1)                 10        \n",
      "_________________________________________________________________\n",
      "p_hat (Activation)           (None, 1)                 0         \n",
      "=================================================================\n",
      "Total params: 3,483\n",
      "Trainable params: 3,483\n",
      "Non-trainable params: 0\n",
      "_________________________________________________________________\n"
     ]
    },
    {
     "name": "stderr",
     "output_type": "stream",
     "text": [
      "[root    |INFO|build_network.py:57] Build Network\n",
…
